app/src/main/assets/loan_default.tflite (tflite, 46648 bytes, 8 tensors)

arith.constant f4 [2, 32]
0	0xbd3a7b0b	-0.0455275
1	0xbea04991	-0.31306127
2	0xbb1bbf52	-0.002376516
3	0x3d92d59b	0.07169648
4	0x3de64d1c	0.11245176
5	0xbd9c7222	-0.076389566
6	0xbe9a74dc	-0.30167282
7	0xbedbd71c	-0.42937553
8	0x3ed379fd	0.41304007
9	0x3ecdc0d2	0.40186173
10	0x3b733cf2	0.0037115184
11	0x3d5b9ac9	0.05361441
12	0xbd845206	-0.06460957
13	0xbc00d617	-0.007863543
14	0xbe9e9775	-0.30974928
15	0x3dda4abd	0.106587864
16	0xbda623c0	-0.081122875
17	0xbc7afd3d	-0.015319166
18	0x3e5fd43e	0.21858308
19	0x3ea46b22	0.32112986
20	0x3e73e32b	0.23817126
21	0xbc30ff5b	-0.010803069
22	0xbe9552b5	-0.29164663
23	0x3dff1f35	0.12457124
24	0xbed08907	-0.40729544
25	0xbeb6ed05	-0.35727707
26	0xbdf54cd2	-0.11977543
27	0x3e988e8f	0.29796264
28	0xbb0b6114	-0.002126758
29	0x3a6f4ffd	0.00091290456
30	0x3e38f23c	0.18061155
31	0xbe9be94a	-0.30451423
32	0xbdd68811	-0.10475171
33	0xbd07f63d	-0.033193815
34	0x3d16e905	0.03684332
35	0xbe9d37b6	-0.30706567
36	0x3ed1894d	0.40925065
37	0xbe64fe64	-0.22362667
38	0xbe8caa37	-0.27473614
39	0xbebeccef	-0.37265727
40	0x3c3b5803	0.011434558
41	0x3ec1f9d7	0.37885925
42	0xbd85e2ba	-0.06537385
43	0x3ea5db94	0.32394087
44	0xbd05c134	-0.032654956
45	0x3e5b1af9	0.21397008
46	0x3ea8ba97	0.32954857
47	0x3e00a708	0.12563717
48	0x3ead5b10	0.33858538
49	0x3ca133b1	0.019677969
50	0xbea2a540	-0.317667
51	0xbeb96fd2	-0.36218125
52	0x3e870f82	0.2637902
53	0x3e30d24e	0.17267725
54	0x3f1fd9ae	0.6244153
55	0x3ed3b2a1	0.4134722
56	0x3cde3c03	0.027128225
57	0x3e91ebd1	0.28500226
58	0xbe4866f0	-0.19570518
59	0x3dc5d928	0.0966056
60	0x3dae3e49	0.08507974
61	0x3e80c30b	0.25148806
62	0x3e4c5543	0.199544
63	0x3efbe2a0	0.4919634

arith.constant1 f4 [32, 64]
0	0xbdf2bfb8	-0.11852974
1	0xba831843	-0.0010001737
2	0x3ed5258b	0.41630206
3	0xbe25a908	-0.16177762
4	0xbe236940	-0.15958118
5	0x3cb66488	0.022264734
6	0xbc68874b	-0.014192413
7	0x3d52363f	0.051321264
8	0xbdf4c043	-0.119507335
9	0xbd613b39	-0.05498812
10	0x3e3a77ba	0.18209735
11	0xbddacbb1	-0.10683382
12	0xbe8cb864	-0.2748443
13	0xbd325f2a	-0.043547787
14	0xbe4eb57d	-0.2018642
15	0x3d2ac5ae	0.04169243
16	0xbbbd16a3	-0.005770521
17	0xbd17dd58	-0.037076324
18	0xbcc180c1	-0.023620965
19	0xbcfbcb85	-0.030736694
20	0x3e2e0c51	0.16996886
21	0x3e12bf4b	0.14330785
22	0x3e2efb74	0.17088109
23	0xbe2533ee	-0.16133091
24	0xbe98a029	-0.29809693
25	0x3ddd7645	0.10813574
26	0x3e0aa9f4	0.13541394
27	0x3b74c816	0.0037350706
28	0xbd76a6f9	-0.06021783
29	0x3d098b59	0.033580158
30	0x3def16fe	0.11674307
31	0x3e858e29	0.26085022
32	0xbe08b532	-0.1335037
33	0xbe21d343	-0.15803246
34	0x3e65166e	0.22371837
35	0x3d383103	0.044968616
36	0xbe248124	-0.16064888
37	0x3e1d52d8	0.15363634
38	0xbe2d1c6a	-0.1690537
39	0x3dee484b	0.116348825
40	0x3db6dbd1	0.089286454
41	0x3e89915f	0.26868722
42	0x3e2498ec	0.1607396
43	0x3e0d1101	0.13776018
44	0x3c9d1e8b	0.019179603
45	0x3c361242	0.011112751
46	0x3d97cf48	0.07412583
47	0x3e8cf7ce	0.2753281
48	0xbdb71118	-0.08938807
49	0xbcb42fdf	-0.021995483
50	0x3cbfd757	0.023418112
51	0xbe00cf0b	-0.1257898
52	0xbe0d7fd1	-0.1381829
53	0xbd7e526d	-0.062090326
54	0x3e43664c	0.19081992
55	0x3e9ca019	0.30590895
56	0xbe71c47c	-0.23610109
57	0x3e24c026	0.16088924
58	0xbea0f036	-0.31433266
59	0xbe40c5a1	-0.1882539
60	0x3e14512b	0.14484088
61	0x3e62f427	0.22163449
62	0xbe3e5b2e	-0.1858947
63	0xbe9b3614	-0.30314696
64	0x3dbcad68	0.09212762
65	0x3b00786d	0.001960303
66	0x3e1b78c4	0.15182787
67	0xbeb60a7c	-0.35554874
68	0x3e1172c1	0.14203931
69	0xbca7e329	-0.02049406
70	0xbe1712b8	-0.14753234
71	0xbe853af7	-0.2602155
72	0xbe82cae3	-0.25545415
73	0xbe38b628	-0.18038237
74	0xbc838c01	-0.01605797
75	0x3d435440	0.04768777
76	0xbe806c6a	-0.25082713
77	0x3d7030dc	0.058640346
78	0x3e68fee3	0.22753482
79	0xbe78072a	-0.24221483
80	0xbe7e8c79	-0.24858274
81	0xbe07b94f	-0.13254283
82	0x3e5e16b4	0.21688348
83	0xbe17fda0	-0.14842844
84	0x3a1bcf1c	0.00059436425
85	0x3d682c4d	0.056682874
86	0x3da47ef1	0.08032025
87	0xbe71f7b4	-0.23629647
88	0x3e056c54	0.13029605
89	0xbdba94db	-0.09110423
90	0xbea74074	-0.3266636
91	0xbdccd00a	-0.10000618
92	0xbe5c3834	-0.21505815
93	0x3e56949d	0.20955129
94	0x3e8259f1	0.25459245
95	0x3e53ded4	0.20690471
96	0x3e58e1a5	0.21179827
97	0x3e70915d	0.23492952
98	0x3d476473	0.04867978
99	0xbe881c7f	-0.2658424
100	0xbe5db714	-0.2165187
101	0x3dd6bd85	0.10485367
102	0x3bee6eac	0.0072763767
103	0x3dd2d4b8	0.10294479
104	0x3d23b3c0	0.039966345
105	0x3b9cedf3	0.004789108
106	0xbe814315	-0.25246492
107	0xbdc58d38	-0.09646076
108	0xbbb76f5e	-0.005597993
109	0x3c83af28	0.016074732
110	0x3e326d9c	0.17424625
111	0xbe706eea	-0.2347981
112	0xbe2f9542	-0.17146781
113	0xbc06ae5f	-0.008220284
114	0xbdd35e70	-0.10320747
115	0x3e0351b0	0.1282413
116	0x3e5845b0	0.21120334
117	0x3cd27fe2	0.025695745
118	0xbd92dda7	-0.07171183
119	0xbd9f88f5	-0.07789794
120	0xbe3a94f4	-0.18220884
121	0xbdcc01e5	-0.09961299
122	0xbe3d3581	-0.18477441
123	0x3cdb87e2	0.026798192
124	0x3e2fd47c	0.171709
125	0x3dd8b951	0.10582221
126	0xbcbc392b	-0.022976479
127	0xbdc1c3b0	-0.094611526
128	0x3e0a27a4	0.13491684
129	0x3e65c1ed	0.22437258
130	0x3eb5e1b6	0.35523766
131	0x3d029433	0.031879615
132	0xbb71bff8	-0.0036888104
133	0xbe82ebcc	-0.25570524
134	0x3e24480b	0.16043107
135	0xbd107538	-0.03526804
136	0xbdb89d4e	-0.090143785
137	0x3e0194c7	0.1265441
138	0x3ccf555d	0.02530926
139	0x3e06f4c2	0.13179305
140	0xbdfc0634	-0.12305871
141	0xbc8dde46	-0.017317902
142	0xbc4f8a4a	-0.012667248
143	0x3e1528a5	0.14566286
144	0xbd769b4f	-0.060206708
145	0x3e05febe	0.13085458
146	0x3e806b3a	0.25081807
147	0x3f3b9f4b	0.73289937
148	0x3e6abb01	0.22922899
149	0x3c960c55	0.018316427
150	0x3e2dc796	0.16970667
151	0x3e5c15b6	0.21492657
152	0x3f117390	0.5681696
153	0xbda6febd	-0.08154056
154	0xbda6c8ec	-0.081437916
155	0x3de7782d	0.113022186
156	0xbda5ebc9	-0.08101613
157	0x3c8993dc	0.016794138
158	0xbeb38687	-0.35063574
159	0x3ce88d57	0.028387709
160	0x3e352a0f	0.17691825
161	0xbdae4447	-0.085091166
162	0x3e0fda07	0.14048015
163	0xbe61776f	-0.22018217
164	0x3e6b176d	0.22958155
165	0xbbca28fe	-0.0061694374
166	0xbe9250b2	-0.2857719
167	0x3d822d3b	0.06356283
168	0x3e57b954	0.21066791
169	0x3f0ae3c2	0.5425378
170	0xbeb57ab9	-0.35445192
171	0xbdc821bc	-0.09772059
172	0xbe378077	-0.17920099
173	0x3bb65d61	0.005565331
174	0x3ddc48b3	0.10756054
175	0xbd814935	-0.06312791
176	0xbcb540c2	-0.022125605
177	0xbde3d1bb	-0.11123987
178	0xbdfd7a82	-0.12376882
179	0x3d9d2326	0.0767272
180	0x3ddbee5a	0.10738821
181	0xbe0519bd	-0.129981
182	0xbd37ff31	-0.044921104
183	0x3e84f633	0.25969085
184	0x3e27962a	0.16365877
185	0x3f3a9aa4	0.7289221
186	0xbd48de8f	-0.049040373
187	0xbc806133	-0.015671348
188	0x3e5f5cf6	0.21812806
189	0x3ec07247	0.37587187
190	0x3dd16053	0.102234505
191	0x3d9e4c7a	0.077294305
192	0x3d725c50	0.059170067
193	0xbe2f5888	-0.17123616
194	0x3d85296f	0.065020435
195	0xbdc77ac8	-0.097402155
196	0x3dfafb80	0.12255001
197	0xbe19b5d0	-0.15010762
198	0x3e3c51fc	0.1839065
199	0x3d14c6a2	0.036322244
200	0xbc9241f5	-0.017853716
201	0x3e0cb304	0.13740164
202	0x3df445da	0.11927386
203	0xbb510700	-0.0031895041
204	0xbea460eb	-0.32105193
205	0x3cc732a0	0.024316132
206	0x3ceb5100	0.028725147
207	0xbe644dd6	-0.22295317
208	0x3e177722	0.1479154
209	0xbdaebaf0	-0.08531749
210	0xbe67cfd4	-0.22637874
211	0xbde50e1d	-0.111843325
212	0xbe712720	-0.23550081
213	0x3e4dfabc	0.20115179
214	0xbe8dac35	-0.27670446
215	0x3e206060	0.15661764
216	0xbe5eba4c	-0.21750754
217	0xbdbafa1a	-0.09129734
218	0xbe37d3b2	-0.17951849
219	0xbe500fba	-0.20318499
220	0xbe3a9f7a	-0.18224898
221	0x3de58ec1	0.11208869
222	0x3dd1c19c	0.10242006
223	0xbdcd52d0	-0.10025561
224	0x3da593a2	0.08084799
225	0xbc575500	-0.013142824
226	0xbe333151	-0.17499281
227	0xbe1da3e9	-0.15394558
228	0xbda85d20	-0.08220887
229	0xbda91905	-0.08256725
230	0xbe589dc8	-0.21153939
231	0xbe0b8a4c	-0.13626975
232	0x3e1a4028	0.15063536
233	0x3e5772ca	0.21039882
234	0xbe4fa690	-0.20278382
235	0x3ca8b9c0	0.020596385
236	0xbe713ea4	-0.23559052
237	0xbcfbd947	-0.030743254
238	0xbe8cb363	-0.2748061
239	0xbe0f9491	-0.14021517
240	0x3d821aa1	0.06352735
241	0x3da36700	0.0797863
242	0xbe76a838	-0.24087608
243	0x3df476d6	0.11936729
244	0x3da35779	0.079756685
245	0x3d10831e	0.035281293
246	0xbd41b3f4	-0.047290757
247	0xbe866a1f	-0.2625284
248	0xbdf7c490	-0.12098038
249	0x3ab44200	0.001375258
250	0x3db8f6cc	0.09031448
251	0xbd239c7e	-0.039944164
252	0xbddf2898	-0.108964145
253	0xbe6b2d70	-0.22966552
254	0xbe73c518	-0.23805654
255	0x3dc853d2	0.097816125

arith.constant2 f4 [64, 128]
0	0x3dbff01c	0.09371969
1	0xbe00460c	-0.12526721
2	0x3d6b4ad8	0.057444423
3	0x3dc8229e	0.09772228
4	0xbd7f7d26	-0.06237521
5	0x3dbdd109	0.09268386
6	0x3c0b5cb0	0.008505985
7	0xbe1aa576	-0.15102181
8	0x3d85d2a4	0.06534317
9	0xbe555cd1	-0.20836188
10	0xbe4baab5	-0.19889338
11	0xbba581af	-0.00505086
12	0x3dd2ba64	0.102894574
13	0x3dcf82c7	0.10132366
14	0x3d1e5680	0.03865671
15	0xbdc79b7a	-0.09746452
16	0xbdfb7f98	-0.12280196
17	0xbe1b88f7	-0.15188967
18	0xbc043ee0	-0.008071631
19	0x3e13563f	0.14388369
20	0x3d9fab24	0.07796314
21	0xbca77332	-0.020440672
22	0xbc216da0	-0.009852797
23	0xbd85c742	-0.06532146
24	0xbe1ebc9d	-0.15501638
25	0xbd1124ea	-0.035435595
26	0x3e2c3dcd	0.1682045
27	0x3da60404	0.08106235
28	0x3de8a2a5	0.11359147
29	0x3cdacb40	0.026708245
30	0x3da64a6a	0.08119662
31	0x3d65978f	0.05605274
32	0x3b3946fd	0.0028271072
33	0xbd728e47	-0.059217717
34	0xbc7b189f	-0.015325694
35	0x3e22b065	0.15887602
36	0x3c1bc09e	0.009506373
37	0xbde4b19e	-0.1116669
38	0xbe1fb9bb	-0.15598194
39	0x3d51b6f5	0.051199872
40	0x3d8e69b2	0.069537535
41	0xbd338dd4	-0.04383643
42	0xbdbe5c36	-0.092949316
43	0xbe1202f0	-0.14258933
44	0x3db65b02	0.08904077
45	0xbe4d1264	-0.20026547
46	0xbdcfef7c	-0.101531
47	0xbe328c6c	-0.17436379
48	0xbc1d1000	-0.009586334
49	0x3e146989	0.14493383
50	0xbe3d8282	-0.18506816
51	0xbe16d4b7	-0.14729582
52	0xbdacc888	-0.08436686
53	0xbd06b92a	-0.03289143
54	0xbe2f357b	-0.17110245
55	0xbdfeaacb	-0.1243492
56	0xbd8c8a3b	-0.06862303
57	0xbe02f85a	-0.12790051
58	0x3d3618b8	0.044457167
59	0xbdb71ab1	-0.08940638
60	0x3c86ff4a	0.016479153
61	0xbddc0a9a	-0.107442096
62	0xbe3a31e8	-0.181831
63	0xbd514b8a	-0.05109743
64	0x3de3de07	0.11126333
65	0xbd8ab9ac	-0.06773695
66	0xbdf507ed	-0.11964402
67	0xbb3d551d	-0.0028889843
68	0x3da215f2	0.07914342
69	0x3d769b46	0.060206674
70	0xbdd3d298	-0.10342902
71	0xbcae563e	-0.021281358
72	0xbc044920	-0.008074075
73	0x3d27f1d2	0.041002102
74	0x3e0a09d0	0.13480306
75	0x3d9893f2	0.07450093
76	0x3b111cc8	0.00221424
77	0xbdcc8b0f	-0.09987461
78	0x3dcf7fc4	0.10131791
79	0xbdd017d2	-0.10160793
80	0x3df3e682	0.119092
81	0x3dcb507c	0.099274606
82	0x3cbc8698	0.023013398
83	0x3d7d2cf2	0.06181044
84	0x3daa559d	0.08317111
85	0x3cf1534f	0.02945867
86	0x3c554960	0.013017982
87	0xbcaae440	-0.020860791
88	0xbd79a7ad	-0.060950924
89	0xbe209c7d	-0.15684696
90	0xbd836239	-0.06415219
91	0x3d171cdd	0.03689276
92	0xbe077572	-0.13228396
93	0x3e14c01d	0.1452641
94	0x3cd108aa	0.025516827
95	0x3c501ea0	0.012702614
96	0xbd34e36a	-0.04416219
97	0xbda2e19d	-0.079531886
98	0xbe4fd9d9	-0.20297946
99	0xbceb7c6e	-0.028745856
100	0x3d8f9eca	0.070127085
101	0x3e29aad7	0.16569076
102	0xbcb7853e	-0.022402402
103	0x3dc91cee	0.09819971
104	0xbe30fe9c	-0.17284626
105	0xbc7146b0	-0.014726326
106	0x3d190cf1	0.037365858
107	0xbe288830	-0.16458201
108	0x3db9c72f	0.090711944
109	0x3db7166d	0.08939824
110	0xbe5621f3	-0.20911388
111	0xbcd2d518	-0.025736377
112	0xbd6a86f3	-0.057257604
113	0x3df1b46a	0.118019894
114	0xbd0fc258	-0.03509745
115	0x3e0a286b	0.1349198
116	0xbcb3c2d1	-0.021943482
117	0xbc844466	-0.016145896
118	0xbe07870d	-0.13235112
119	0xbde185fd	-0.11011884
120	0xbd43d1d2	-0.047807522
121	0x3e0b73e0	0.13618422
122	0xbd84199c	-0.06450197
123	0x3df4547d	0.11930177
124	0x3dfbb2b3	0.122899435
125	0x3d9fcb73	0.07802477
126	0xbe05e041	-0.13073827
127	0x3e1bff9d	0.15234227
128	0x3b80c3a0	0.0039295703
129	0xbe4214dc	-0.1895327
130	0x3e325087	0.17413531
131	0x3d4e5c4e	0.050380997
132	0x3de0216b	0.10943874
133	0x3dacd2c9	0.084386416
134	0x3c71a163	0.01474795
135	0xbe34670c	-0.17617434
136	0xbd87c607	-0.066295676
137	0xbe3adf43	-0.1824923
138	0x3db3464d	0.08753643
139	0xbe1f8733	-0.15578918
140	0x3c9c7c85	0.019102344
141	0x3d933ca8	0.07189304
142	0x3e31ab1f	0.17350434
143	0xbe2fd6ec	-0.1717183
144	0xbe28982d	-0.164643
145	0x3d685525	0.056721825
146	0xbd883967	-0.06651574
147	0xbd50dc42	-0.050991304
148	0xbe0bf3e6	-0.13667259
149	0x3da53727	0.0806716
150	0xbcfe2c38	-0.031026945
151	0x3e068ede	0.13140437
152	0xbe05df64	-0.13073498
153	0x3d969a1e	0.07353614
154	0xbda1175b	-0.07865783
155	0x3d697df0	0.05700487
156	0xbc607a79	-0.013701075
157	0x3cf56eab	0.029959997
158	0x3c2d2ae2	0.010569306
159	0x3de9abe9	0.114097424
160	0xbbc2c84b	-0.005944287
161	0xbbf21b83	-0.0073885336
162	0x3d118e1d	0.03553592
163	0x3cf15da3	0.029463595
164	0x3d55d4e1	0.05220497
165	0xbe300d51	-0.1719258
166	0xbe14d47e	-0.14534184
167	0xbc00a578	-0.007851951
168	0x3da1f402	0.07907869
169	0x3d83098b	0.063983046
170	0x3e018ebf	0.1265211
171	0xbcad1764	-0.021129318
172	0xbc9ca43e	-0.019121286
173	0xbd10e4fb	-0.035374623
174	0x3c4616df	0.012090414
175	0xbdd94093	-0.1060802
176	0x3e057248	0.13031876
177	0xbdff87ba	-0.1247706
178	0x3dc89726	0.09794454
179	0xbad5023e	-0.0016251279
180	0xbdf2c19d	-0.11853335
181	0xbd9356f1	-0.07194317
182	0xbc75d1ea	-0.015003661
183	0xbe4b02fb	-0.19825356
184	0xbe097a16	-0.13425478
185	0xbd7086d0	-0.058722317
186	0xbe2fc370	-0.17164397
187	0xbdd3f385	-0.10349182
188	0x3d92649d	0.07148097
189	0xbe032a83	-0.12809186
190	0xbdb649ef	-0.089008205
191	0xbe2a58fb	-0.16635506
192	0xbe0d9038	-0.13824546
193	0xbe13470f	-0.14382575
194	0xbe6a4d77	-0.22881113
195	0xbda9cf73	-0.08291521
196	0xbb18bc65	-0.0023305651
197	0xbdfb955b	-0.12284347
198	0xbd93e2f9	-0.07221026
199	0xbc1753f5	-0.0092363255
200	0x3d2cfce8	0.042233378
201	0xbd360195	-0.044435102
202	0x3d4894e3	0.048970114
203	0xbe272c7e	-0.16325566
204	0xbc0542f7	-0.008133641
205	0xbe0bc984	-0.13651091
206	0x3dac78c9	0.084214754
207	0xbc696055	-0.014244159
208	0x3d4fbb43	0.050715696
209	0xbd41039c	-0.047122583
210	0xbe2e1f51	-0.17004134
211	0x3d64799b	0.055780035
212	0x3cc72992	0.024311814
213	0xbdaa4c99	-0.08315391
214	0x3e0b5f1a	0.13610497
215	0x3c322a68	0.010874368
216	0x3d9a6df9	0.07540507
217	0xbd8748f8	-0.066057146
218	0xbdf6fb02	-0.12059595
219	0xbbb1d42e	-0.005426905
220	0xbd8a0287	-0.06738763
221	0x3bc77570	0.0060869977
222	0xbcf4bd92	-0.02987555
223	0xbe3c5777	-0.1839274
224	0x3d055cc4	0.03255917
225	0xbc9b2d86	-0.018942606
226	0x3c83996b	0.016064366
227	0xbdf8d48f	-0.12149917
228	0xbccc5890	-0.024944574
229	0x3e053db5	0.1301182
230	0x3da1e984	0.07905868
231	0xbd862c26	-0.065513894
232	0xbe104573	-0.14088993
233	0x3b831420	0.004000202
234	0x3dadc6b3	0.084851645
235	0xbdb839c5	-0.08995394
236	0x3e0f85fb	0.14015953
237	0xbd1f08dc	-0.03882681
238	0x3d746a0a	0.05967144
239	0xbe2d4d8c	-0.16924113
240	0xbe1e804c	-0.15478629
241	0x3e074c5b	0.13212721
242	0xbe17e104	-0.1483193
243	0x3d2ec898	0.04267177
244	0xbe148b59	-0.14506282
245	0xbe3edc4a	-0.18638721
246	0x3e3a8a14	0.18216735
247	0xba6fe352	-0.0009151
248	0x3df167ba	0.117873624
249	0x3cf4b5b3	0.029871797
250	0x3d1bbf5e	0.0380243
251	0x3e121a88	0.14267933
252	0xbda94b01	-0.08266259
253	0x3dff508d	0.12466536
254	0xbe01bf4c	-0.1267063
255	0x3dc05a5b	0.09392234

arith.constant3 f4 [2]
0	0x3e3aaecd	0.18230744
1	0xbe3aaebe	-0.18230721

arith.constant4 f4 [32]
0	0x3d46173b	0.048361998
1	0xbd9097d3	-0.07060208
2	0xbcb1aea0	-0.021689713
3	0xbdc66612	-0.09687437
4	0x00000000	0.0
5	0x3cc40c8b	0.023931762
6	0xbd82ac93	-0.06380572
7	0xbd9dec62	-0.07711102
8	0x3db90638	0.09034389
9	0xbd831ffd	-0.06402586
10	0xbe76624e	-0.24060938
11	0xbd1d33ce	-0.038379483
12	0xbd4f2883	-0.050575744
13	0xbde35704	-0.11100581
14	0x3c7c28dd	0.015390602
15	0xbd88e5aa	-0.0668443
16	0xbdb10a31	-0.08644522
17	0xbcac6c7e	-0.021047827
18	0x3e23ca76	0.15995201
19	0x3e737c4e	0.23777887
20	0x3ccfab39	0.0253502
21	0xbccad259	-0.024758505
22	0x3d202ef3	0.039107274
23	0xbda68294	-0.081303746
24	0xbc201cc4	-0.009772483
25	0xbce4e772	-0.027942393
26	0xbd60870a	-0.054816283
27	0x3da1d157	0.079012565
28	0xbd6bfc59	-0.057613704
29	0xbd427bf6	-0.0474815
30	0x3d1ab493	0.037769865
31	0xbe2c1358	-0.16804254

sequential_1/dense_1_2/BiasAdd/ReadVariableOp f4 [64]
0	0xbd29d861	-0.04146612
1	0xbd79c166	-0.060975455
2	0xbd8a2c5a	-0.06746741
3	0x3e802d93	0.2503477
4	0xbdeacdd5	-0.114650406
5	0x3d10cd12	0.03535182
6	0xbca6e40a	-0.02037241
7	0xbcc8dd5f	-0.02451962
8	0xbd471472	-0.048603483
9	0xbd00e417	-0.031467523
10	0x3e7a3873	0.24435596
11	0xbe2cd8d2	-0.16879585
12	0xbcd78b7a	-0.026311625
13	0xbd2fdcab	-0.042935055
14	0xbe3e99f6	-0.18613419
15	0xbe0aae1d	-0.13542981
16	0x3d8124f1	0.06305874
17	0xbd5125bd	-0.05106138
18	0xbda25639	-0.07926602
19	0xbdda6cb1	-0.106652625
20	0x3e8c9792	0.2745939
21	0xbd56634b	-0.052340787
22	0xbca46472	-0.020067427
23	0xbc853301	-0.016259672
24	0xbe48c9cb	-0.19608228
25	0x3cda2bae	0.026632156
26	0x3e0b4799	0.13601531
27	0x3e7e0aa7	0.24808751
28	0x3e57e3f3	0.2108305
29	0xbd26e764	-0.040748015
30	0xbe2b336b	-0.16718833
31	0xbd7785a9	-0.060430203
32	0xbd70ef1f	-0.058821794
33	0xbcd56c77	-0.026052697
34	0xbddaa30b	-0.10675629
35	0xbd189415	-0.037250597
36	0xbe52dc47	-0.20591842
37	0x3e0e7551	0.1391194
38	0x3e438095	0.19092019
39	0xbe0b645a	-0.136125
40	0xbd4518d2	-0.048119374
41	0xbd2ad94f	-0.041711148
42	0x3e5dacc1	0.21647932
43	0xbe06c0b2	-0.13159445
44	0x3e80b6d6	0.25139493
45	0x3e5465f4	0.20742017
46	0xbc88c113	-0.016693627
47	0xbdb0200c	-0.085998625
48	0x3e76a63a	0.24086848
49	0x3d28a6e9	0.041174803
50	0xbd4e72ce	-0.050402455
51	0xbdb63d86	-0.088984534
52	0xbdd0330b	-0.10165986
53	0xbd5cd9eb	-0.05391876
54	0x3e88cb68	0.26717687
55	0x3db40e4d	0.0879179
56	0xbcfc9785	-0.030833969
57	0xbe853312	-0.26015526
58	0x3e28e16a	0.16492239
59	0xbdaea80e	-0.08528148
60	0xbd88b2ef	-0.06674754
61	0xbd741480	-0.059589863
62	0xbe37d6e6	-0.17953071
63	0xbdeef36a	-0.11667521

sequential_1/dense_1/BiasAdd/ReadVariableOp f4 [128]
0	0xbe466b32	-0.1937683
1	0xbd42555d	-0.04744469
2	0x00000000	0.0
3	0x3e404e05	0.18779762
4	0x3e9ca886	0.30597323
5	0x3cfe862e	0.031069841
6	0xbd54428a	-0.05182127
7	0xbd9e9333	-0.0774292
8	0xbd90b8bc	-0.07066485
9	0xbe3d531f	-0.1848874
10	0x3e614685	0.21999557
11	0xbd398e6b	-0.045301836
12	0x3e954854	0.29156744
13	0xbe316290	-0.17322755
14	0x00000000	0.0
15	0x3d5f0500	0.054448128
16	0xbe226262	-0.15857843
17	0x3db4df93	0.08831706
18	0x00000000	0.0
19	0x3d22d72e	0.039755993
20	0x3deed1d7	0.116611175
21	0x3e9c18a4	0.3048755
22	0xbc0606f5	-0.00818037
23	0xbbeb43a2	-0.0071796933
24	0xbe2b16f1	-0.1670797
25	0x3e6ad223	0.22931723
26	0xbcf5562a	-0.029948313
27	0xbe035f08	-0.1282922
28	0xbdd54490	-0.10413468
29	0xbd4dcbb5	-0.0502431
30	0x3e92b321	0.2865229
31	0x3d40f55e	0.047109
32	0x3e8b581b	0.27215657
33	0xbe256873	-0.16153125
34	0xbd0c46b7	-0.034247126
35	0xbcd52cd2	-0.026022349
36	0xbd420a5e	-0.04737317
37	0x3d801d95	0.06255642
38	0x3dac2d53	0.084070824
39	0xbe6cac04	-0.23112494
40	0x00000000	0.0
41	0xbd9a5c4f	-0.07537138
42	0xbe159cc5	-0.14610584
43	0x3d336413	0.04379661
44	0xbe1cc620	-0.15309954
45	0x3e679238	0.22614372
46	0xbd69fa31	-0.057123367
47	0x3de76ecd	0.113004304
48	0x3e82b849	0.25531223
49	0x00000000	0.0
50	0xbe59193f	-0.21201037
51	0xbd710c6e	-0.058849744
52	0xbd5718c7	-0.052513864
53	0x3ea6829b	0.3252152
54	0xbe61ed16	-0.22063097
55	0xbdd74d80	-0.10512829
56	0x3e17e8c0	0.14834881
57	0x00000000	0.0
58	0x00000000	0.0
59	0xbbe7b5e9	-0.007071246
60	0x3e31eba8	0.17375052
61	0xbe458d41	-0.19292165
62	0x3ddb3736	0.1070389
63	0xbe4e087d	-0.20120426
64	0x3e29ef2f	0.16595148
65	0x3b91093b	0.004426149
66	0xbe5325e4	-0.20619923
67	0x3ddf2b0a	0.10896881
68	0x3e9c3c71	0.30514863
69	0x3e0629b9	0.13101853
70	0x3deadf4d	0.114683725
71	0xbe5cf576	-0.21578011
72	0x00000000	0.0
73	0x3ddabc2e	0.10680424
74	0xbc0ba264	-0.008522604
75	0x3d9df711	0.0771314
76	0xbdb8c7f0	-0.0902251
77	0x3e749a9d	0.23887105
78	0xbc9ff162	-0.01952428
79	0x3dce3d55	0.10070292
80	0xbc238626	-0.009980714
81	0xbcffc835	-0.031223396
82	0xbc2f0a9e	-0.010683684
83	0xbe4966f1	-0.19668175
84	0xbe3ed33e	-0.1863527
85	0xbc9ca645	-0.019122252
86	0xbcd142b1	-0.025544496
87	0xbd63a56a	-0.055577673
88	0xbd7029a1	-0.05863345
89	0x3ea6f80a	0.32611114
90	0x3e8943d6	0.26809567
91	0x3d97d03d	0.07412765
92	0x3e087d07	0.13328944
93	0xbdc961a8	-0.098330796
94	0x3e63d850	0.22250485
95	0xbaf858af	-0.0018947328
96	0x3e1a3892	0.15060642
97	0xbe571d05	-0.21007164
98	0x3e65d0ea	0.22442976
99	0xbe33d080	-0.17560005
100	0x00000000	0.0
101	0x3d92e834	0.071731955
102	0xbe4e6c25	-0.20158441
103	0xbc7e0976	-0.015505185
104	0xbe36c3b7	-0.17848097
105	0x00000000	0.0
106	0x3c8800c4	0.016601928
107	0x3c892762	0.016742412
108	0xbcc99fb9	-0.024612295
109	0xbe3a2c0e	-0.18180868
110	0xbe5ad66a	-0.21370855
111	0x00000000	0.0
112	0x3e3591f2	0.17731455
113	0xbc5d34e2	-0.013501378
114	0x00000000	0.0
115	0xbc0c1ee6	-0.008552289
116	0xbe19a42b	-0.15004031
117	0x3e918888	0.28424478
118	0x3e9d8d23	0.3077174
119	0xbd6d57b9	-0.057944987
120	0xbd480150	-0.048829377
121	0xbe0ec2ea	-0.13941541
122	0x3e4dd7a7	0.20101796
123	0xbd1ee007	-0.038787868
124	0x3e17ed78	0.14836681
125	0x3e255a35	0.16147693
126	0xbd897725	-0.06712178
127	0x3cf0e5c6	0.02940644

sequential_1/dense_1/MatMul f4 [128, 4]
0	0x3de589b7	0.11207908
1	0x3e2c5db0	0.16832614
2	0x3f0f55a7	0.5599007
3	0xbd5cc4a2	-0.05389846
4	0xbcdf66af	-0.027270643
5	0xbe20335a	-0.15644589
6	0x3d4c63f7	0.04990002
7	0xbc4ffb5d	-0.012694207
8	0xbce26bb8	-0.027639255
9	0xbd8b8b32	-0.06813659
10	0xbe56abf7	-0.20964037
11	0xbdaf1d14	-0.08550468
12	0xbc1b01dd	-0.009460893
13	0xbe03ac90	-0.12858796
14	0xbe3bef5e	-0.1835303
15	0xbc13273f	-0.008981525
16	0xbce86675	-0.028369168
17	0xbc7713bb	-0.015080388
18	0xbeb0927e	-0.34486765
19	0x3c20fdc1	0.009826125
20	0xbd1d57bd	-0.038413752
21	0x3d4d5488	0.050129443
22	0xbe88fe66	-0.2675659
23	0xbe2d5adf	-0.16929196
24	0xbd79e60e	-0.061010413
25	0x3cccbbfa	0.024991978
26	0x3dc35085	0.09536842
27	0xbe689faf	-0.22717164
28	0x3c3e9368	0.011631824
29	0x3d6e7c35	0.05822392
30	0x3b89118e	0.004183001
31	0x3baa0abe	0.005189269
32	0x3d4cfe4c	0.050047204
33	0xbc0887a5	-0.008333121
34	0xbe4ef1b2	-0.20209387
35	0x3d278ef9	0.040907834
36	0xbdc69777	-0.096968584
37	0x3dbfddd5	0.09368483
38	0x3ee8215a	0.45337945
39	0xbe22e2ce	-0.15906832
40	0x3e0e1f24	0.13879067
41	0x3d2b7f69	0.041869555
42	0xbea211c5	-0.31654182
43	0xbdcb49b0	-0.09926164
44	0x3d67a9e0	0.05655849
45	0xb89abb28	-7.378153e-05
46	0xbe47bfcd	-0.1950676
47	0xbdc63a12	-0.09679045
48	0x3c0fa4e9	0.008767345
49	0xbccc4243	-0.02493394
50	0xbeb56c06	-0.35433978
51	0x3c961d11	0.018324407
52	0x3de48dd8	0.11159867
53	0xbd65c6bd	-0.056097735
54	0xbc16fc96	-0.009215495
55	0x3dfbddf6	0.12298195
56	0x3c392be0	0.0113019645
57	0xbdafa2f8	-0.08576006
58	0xbe53bc61	-0.2067733
59	0xbe16d34e	-0.14729044
60	0xbe255fe6	-0.16149864
61	0x3e4e8f2b	0.20171802
62	0xbeba3f43	-0.3637639
63	0x3da46fa0	0.08029103
64	0xbd8bbee1	-0.06823517
65	0xbe2ab1a0	-0.16669321
66	0x3e2dfe97	0.1699165
67	0x3bc66fc6	0.006055805
68	0xbc1724c7	-0.009225077
69	0x3e995e34	0.29954684
70	0xbf03231d	-0.51225454
71	0x3dc4b8ac	0.09605536
72	0xbe168d0a	-0.1470224
73	0xbe592355	-0.21204884
74	0x3c52a580	0.012856841
75	0xbe0747dc	-0.13211006
76	0xbeea12f0	-0.45717573
77	0xbdf56412	-0.119819775
78	0x3e6f51bf	0.23371027
79	0xbe906e60	-0.2820921
80	0x3e34a54e	0.17641184
81	0x3e51595b	0.20444243
82	0xbe8828c9	-0.26593617
83	0x3d1c45d2	0.038152523
84	0xbd6dd712	-0.058066435
85	0xbafa4626	-0.0019094392
86	0xbeafd990	-0.34345675
87	0x3cccb642	0.024989251
88	0xbcf1b813	-0.029506719
89	0xbd21a4e0	-0.039463878
90	0xbd7ea63f	-0.062170263
91	0x3c9fc646	0.019503724
92	0xbe0acc46	-0.13554487
93	0x3c53dd82	0.01293123
94	0xbcc39d5d	-0.023878748
95	0xbc89a5d4	-0.016802706
96	0xbdee9016	-0.11648576
97	0x3d81cef4	0.06338301
98	0x3ee43608	0.44572473
99	0xbdd82a72	-0.10554971
100	0xbe14e2e9	-0.14539684
101	0xbe43891d	-0.19095273
102	0xbe813f15	-0.2524344
103	0x3dd73092	0.10507311
104	0xbdb7a126	-0.089662835
105	0xbd08e134	-0.033417895
106	0xbd699263	-0.05702437
107	0x3d892599	0.06696624
108	0x3dbb3d81	0.0914259
109	0xbd6f19fb	-0.058374386
110	0x3d1f61bc	0.038911566
111	0x3babc12c	0.0052415337
112	0x3dcdd468	0.10050279
113	0xbe3373ad	-0.17524596
114	0x3d39d528	0.045369297
115	0xbe89e8ee	-0.26935524
116	0xbe405bfa	-0.18785086
117	0xbe56a4f1	-0.20961358
118	0x3dc8fb0c	0.098135084
119	0xbe3f4e4c	-0.18682212
120	0x3dc728d9	0.09724588
121	0x3d4c1020	0.049820065
122	0xbeca0c74	-0.39462626
123	0xbd78f7f2	-0.060783334
124	0xbd0aab09	-0.033854518
125	0xbc7b6e5e	-0.015346138
126	0xbeb524b9	-0.3537958
127	0xbb1d4f2b	-0.0024003487
128	0x3e4ddd2f	0.20103906
129	0x3cf4b6c6	0.02987231
130	0xbef18274	-0.4716984
131	0x3db9bf63	0.09069707
132	0x3d68dce3	0.05685128
133	0x3ce18f54	0.027534164
134	0x3d86b63c	0.06577727
135	0x3c8ade8b	0.01695182
136	0xbc0267ac	-0.007959288
137	0x3d4d2565	0.05008449
138	0xbd202100	-0.03909397
139	0xbdea8eb7	-0.11453002
140	0xbe0ecd48	-0.13945496
141	0x3dd09411	0.101844914
142	0xbe8814e7	-0.26578447
143	0xbcbb9a05	-0.02290059
144	0x3ca8b7bb	0.020595422
145	0x3d2c5252	0.042070694
146	0xbed39ce2	-0.4133063
147	0xbc8f6b9a	-0.017507363
148	0xbdea8629	-0.1145137
149	0xbd1053ec	-0.035236284
150	0xbe6e9635	-0.23299487
151	0xbd05a043	-0.03262354
152	0x3e20a078	0.15686214
153	0xbe08145a	-0.13289014
154	0xbeb110d2	-0.34583145
155	0x3c8e2b80	0.017354727
156	0x3e2655e6	0.16243705
157	0x3d23e250	0.04001075
158	0x3f059df4	0.5219414
159	0xbd051bed	-0.032497335
160	0xbe327466	-0.17427215
161	0xbd627614	-0.05528839
162	0xbc4f1870	-0.012640104
163	0xbd284100	-0.041077614
164	0xbe3ad24a	-0.18244281
165	0xbd4d9c64	-0.050197974
166	0x3db7386f	0.08946311
167	0xbcf3cca7	-0.029760672
168	0x3eac3238	0.33632064
169	0xba950a4f	-0.001137087
170	0x3ea5a046	0.3234884
171	0xbebee210	-0.37281847
172	0x3da4f9b8	0.080554426
173	0xbcfcb90a	-0.030849952
174	0xbe677134	-0.22601777
175	0xbe14048c	-0.1445486
176	0x3e2a5f98	0.16638029
177	0x3dffe3fa	0.12494655
178	0x3e88d7c2	0.2672711
179	0xbec7c2c4	-0.39015782
180	0x3e1614f0	0.14656425
181	0xbc035365	-0.008015488
182	0xbe9e2388	-0.30886483
183	0xbe2e9b40	-0.1705141
184	0xbe9584a4	-0.2920276
185	0x3cd07227	0.025445057
186	0xbd73be10	-0.05950743
187	0xbc477f2d	-0.012176317
188	0x3e182615	0.14858277
189	0x3c79a982	0.015238168
190	0xbe8e0dd5	-0.27744928
191	0xbd195d2a	-0.037442364
192	0x3e264243	0.16236214
193	0x3d33b285	0.04387142
194	0xbed32f95	-0.4124724
195	0x3cd4049c	0.025881104
196	0xbdf17eb1	-0.117917426
197	0xbdc27716	-0.0949537
198	0xbc073710	-0.008252874
199	0xbc2254b0	-0.009907886
200	0x3cacd505	0.02109767
201	0xbcc77d29	-0.024351673
202	0x3e1792fc	0.14802164
203	0x3e06e14f	0.13171886
204	0xbe3397e7	-0.17538415
205	0x3d114369	0.035464678
206	0xbcbd219f	-0.02308732
207	0xbd718cdc	-0.058972225
208	0xba8d0b49	-0.001076081
209	0xbda5e8a9	-0.08101017
210	0xbca145b8	-0.019686565
211	0x3e02849d	0.127459
212	0xbe0b4780	-0.13601494
213	0x3c4f147c	0.012639161
214	0xbeb565c1	-0.35429195
215	0x3db08e43	0.08620884
216	0xbc24d134	-0.010059644
217	0x3dae5f0d	0.08514223
218	0x3eb556f8	0.35417914
219	0x3e5405ba	0.2070531
220	0xbee5de7a	-0.448963
221	0xbdad6413	-0.08466353
222	0x3e4d1518	0.20027578
223	0x3eb2a281	0.34889606
224	0xbdf16b2a	-0.11788018
225	0x3e90188e	0.28143734
226	0xbed5aeae	-0.41734833
227	0xbdf10309	-0.11768157
228	0xbc3b5c60	-0.011435598
229	0xbd4c057c	-0.049809918
230	0xbe1f8c28	-0.15580809
231	0xbd5f31e8	-0.054490954
232	0xbe0e7743	-0.13912682
233	0xbe1c4f45	-0.15264614
234	0xbd78fcfc	-0.06078814
235	0x3bff8040	0.007797271
236	0xbe61071a	-0.21975365
237	0x3e1227bd	0.14272971
238	0xbe2dc982	-0.169714
239	0xbe2d900f	-0.16949485
240	0xbdaaac6d	-0.08333669
241	0xbe10d8f8	-0.14145267
242	0xbe8f98f3	-0.28046378
243	0x3c5413d6	0.012944182
244	0x3cb7ed8c	0.022452138
245	0xbaa8ef3f	-0.0012888684
246	0x3e12a24f	0.14319728
247	0x3b3802f5	0.0028077934
248	0xbdfd74d0	-0.12375796
249	0xbd2a467d	-0.04157113
250	0xbe537132	-0.2064865
251	0xbd701768	-0.058616072
252	0x3e4535bf	0.19258784
253	0x3dad2eff	0.084562294
254	0x3ef11ee4	0.4709388
255	0xbdb67670	-0.08909309
